server/controller/ml/model.pt (torch, 28188 bytes, 9 tensors)

att_src f4 [1, 8, 16]
000000 44 b0 02 3e 22 4a c3 bb 70 03 ac 3e 1b 85 7b 3e
       0.12762552 -0.005959765 0.33596373 0.24562494
000010 df b9 ec 3e 11 88 dd 3e 97 98 7c bd 44 de d4 3d
       0.46235558 0.43267873 -0.06166896 0.10393956
000020 d0 07 dd be 39 73 2f be 2d c2 af 3e fd 21 19 3d
       -0.43170023 -0.17133798 0.34327832 0.03738593
000030 bb 5e dd be da 3c 98 be 5c ee b7 3e b0 5d a2 3e
       -0.43236336 -0.29733926 0.3592404 0.31712103
000040 b5 2e fe be 34 5f f1 3e e7 82 d9 3e f4 7f e9 be
       -0.4964501 0.47142947 0.42482683 -0.45605433
000050 f6 d1 af 3e 45 9a 78 3e 24 be 8d 3e ab b2 5a 3e
       0.34339875 0.24277599 0.27684128 0.21357219
000060 91 00 5a 3e 6e 6f 82 3e 5a 32 5b 3e 7e 49 e5 3e
       0.21289279 0.2547564 0.21405926 0.44782633
000070 cc 9c e2 3d db 2d 78 39 ae 36 8e be 2c 1c 99 3e
       0.11065063 0.00023668206 -0.27776092 0.29904306
000080 29 6b 4d 3d 2d 78 e0 3e a1 44 e0 be 48 7a f7 be
       0.050151024 0.43841687 -0.4380236 -0.4833548
000090 56 8b a8 be 5f 7c 43 be 3b 2c cd be f3 e5 00 bf
       -0.32918805 -0.19090413 -0.40072808 -0.50350875
0000a0 87 9d 79 be bf f5 6b 3b 3e b2 c9 bd b7 70 08 3e
       -0.24376498 0.003600463 -0.0984845 0.13324247
0000b0 13 52 09 bf 3a ba 42 3e c4 f2 14 be a4 09 2f be
       -0.5364086 0.19016352 -0.14545733 -0.17093521
0000c0 56 92 d7 3d 58 c6 ff bd 6c 42 04 3f 65 6e a3 3e
       0.10525958 -0.12489003 0.5166385 0.31920162
0000d0 5f e6 e7 3e c8 58 4a be 1e 42 5e 3e 18 c6 26 3e
       0.45292947 -0.1976043 0.21704909 0.16286504
0000e0 1b 78 14 be 8e 7b fb 3e 69 96 7b 3e f0 bb 3c be
       -0.14498942 0.49117702 0.24569096 -0.18431067
0000f0 9a 1f 5b bd ad bf ec 3e c3 a3 97 be 30 d9 b5 3e
       -0.053496934 0.46239987 -0.29617128 0.35517263
000100 c9 af fc 3d d3 9c a6 be 50 d2 e5 bd 0f cd 97 be
       0.12338216 -0.32541522 -0.112217546 -0.29648635
000110 08 31 aa be f1 90 5d 3d 39 09 b4 3d 1d 76 1c 3d
       -0.33240533 0.054093305 0.087908216 0.03819858
000120 c4 6a 28 3e ee 03 f3 bc 3e 07 8f 3d d0 13 77 be
       0.16446978 -0.02966496 0.06983803 -0.24128652
000130 3e fb 01 3f 0b 7f a7 3d b2 84 4d bb c5 7a a5 be
       0.5077399 0.081785284 -0.003135961 -0.32320228
000140 44 87 88 3e 3c f4 84 be 6c e3 ff 3d 83 57 bb be
       0.266657 -0.25967586 0.12494549 -0.36590204
000150 fb 09 5e be fc 79 da be 4e c9 e3 3e ea f4 86 be
       -0.21683495 -0.42671192 0.4448952 -0.2635873
000160 af 66 32 be 27 98 44 3d c3 b2 09 3c 48 b4 1b 3e
       -0.17421983 0.047996666 0.0084044365 0.1520549
000170 19 85 74 3d 40 be 42 3d e7 d7 77 be 8d aa a0 bd
       0.059697244 0.047544718 -0.24203454 -0.0784503
000180 92 01 a5 be 03 97 99 3e a2 01 06 3d c9 94 e8 3d
       -0.3222776 0.29998025 0.0327164 0.113565035
000190 61 e6 8b 3e 13 46 03 3f 85 c8 d4 3d 38 e7 b5 be
       0.27324203 0.512788 0.103898086 -0.35527968
0001a0 3b 99 68 be 84 aa 7d be d2 0b b0 3e 44 3e 0e be
       -0.22714703 -0.24772078 0.34384018 -0.1389094
0001b0 89 de 16 be 54 98 29 3e cc a3 36 be 0a 29 32 3e
       -0.14733328 0.16562015 -0.17835921 0.17398468
0001c0 b9 cd 9a 3e 9e e0 b5 bd 3a 27 9f 3e b5 0a cb be
       0.3023508 -0.08880733 0.31084615 -0.39656606
0001d0 22 f4 0f bf 01 e8 dd 3e b7 42 eb 3e d3 fe 55 be
       -0.5623189 0.43341067 0.45949337 -0.20897989
0001e0 66 64 de 3d fc 2d 5a 3e 82 04 bd 3e cf de f5 be
       0.10858993 0.21306604 0.36917502 -0.48021552
0001f0 eb 0c e8 be 88 0b c2 3e 29 9e 49 3e 06 74 cc 3e
       -0.45322356 0.37899423 0.1968924 0.3993227

att_dst f4 [1, 8, 16]
000000 0d 50 9c 3d db e8 88 be b6 c9 f4 be 1f 71 39 3e
       0.07632456 -0.26740155 -0.47810143 0.18109559
000010 bb 87 d5 3d 89 b7 ef 3d cd d8 ee 3e 6b 9b ed be
       0.10426279 0.117049284 0.4664978 -0.46407637
000020 cf 34 53 bd c2 f7 07 3e 4e 70 75 3e 20 23 c9 3e
       -0.051564034 0.13278106 0.23968622 0.3928461
000030 29 fa a6 3d df 8b 93 be ba 6a b2 be 70 4c bf be
       0.08153183 -0.2881765 -0.3484705 -0.37363005
000040 f6 e6 12 3e 5d 1b be 3e 91 69 bd be 9d d1 ba be
       0.14345917 0.37130252 -0.36994603 -0.36488047
000050 ea bb 0d 3b 8c 0d dc 3e c9 d9 d2 3e 35 8c 03 3d
       0.0021626898 0.42979085 0.41181782 0.032116134
000060 0f 86 6c 3e 57 77 fd 3e f5 c2 11 3e 03 5f 98 be
       0.23098014 0.49505112 0.14234526 -0.29759988
000070 9c 6c 84 3e cb e3 0b be ac 82 f0 be 50 f4 a0 be
       0.25864112 -0.13661115 -0.46974695 -0.31436396
000080 71 0d 7a be c6 eb 98 3e 67 20 68 3e 27 d3 86 3e
       -0.2441919 0.2986738 0.2266861 0.2633297
000090 55 e6 74 be 1e ce 4b be aa b8 bd 3d b3 5f 52 be
       -0.2391599 -0.19902846 0.092637375 -0.20544319
0000a0 93 0f 8e 3c 00 77 ad 3d 2c 50 cc 3d a1 dd ec 3e
       0.01734141 0.08469963 0.09976229 0.4626284
0000b0 ed a3 f4 be 05 6b 8d 3e e7 1e ed 3e de e9 74 3e
       -0.47781315 0.27620712 0.4631264 0.23917338
0000c0 3a b6 ce 3e 09 d1 8a be 79 30 95 3e 94 7b bc bd
       0.40373403 -0.27112606 0.29138544 -0.09203258
0000d0 ab 61 27 be 98 84 df bc c8 3e b7 be 9a ab 8f 3e
       -0.16345851 -0.027284905 -0.35790086 0.2806061
0000e0 3f 6a 5a bd 03 9c bf 3e 1c 6f a8 3d 00 4e b0 3d
       -0.05332398 0.37423715 0.082243174 0.08608627
0000f0 59 4a d9 3e d8 09 3d be c7 1e 11 3e 7e 2b dc bd
       0.42439535 -0.18460786 0.14171897 -0.10750483
000100 2a b1 67 3e 22 d0 a2 be 26 c0 90 3e 2c d2 b1 3e
       0.22626176 -0.31799418 0.28271598 0.3473066
000110 69 93 95 bb c3 fd 5c 3e 9e d4 04 be 20 ef 5c be
       -0.004564692 0.21581177 -0.12971732 -0.21575594
000120 80 6e a5 be dc ba b4 be 5f 61 77 3e 12 9e 97 be
       -0.32310867 -0.35298812 0.24158238 -0.29612786
000130 8b f7 b4 be 8c 02 8f be e8 78 41 3e 72 f3 36 be
       -0.3534511 -0.2793163 0.18893778 -0.17866305
000140 5a 62 eb be 04 cb d4 3e 52 fb f2 3e cb 4c c3 be
       -0.45973474 0.4156114 0.47457367 -0.38144526
000150 7b cb 7a 3e b2 67 21 3e 65 f0 fe be ad f8 c9 3e
       0.24491684 0.15762213 -0.4979278 0.39447537
000160 87 1e d0 be 0c d3 bd 3e f6 c5 b4 3e 93 99 95 3e
       -0.4064829 0.37075078 0.35307282 0.2921873
000170 c0 1d 81 be d0 c8 a9 bb 41 67 ea 3e 90 1c 93 be
       -0.2521801 -0.0051814094 0.457819 -0.2873273
000180 3c 42 a3 be 9e e1 cb 3c 9e 29 91 3e 08 34 f9 be
       -0.3188647 0.024887856 0.28352064 -0.4867251
000190 f2 e0 b8 be 15 0e a9 3e d7 bc 1b be 12 a0 36 3e
       -0.3610912 0.33018556 -0.15208755 0.178345
0001a0 d7 7d ed be 52 88 90 3d 1c 34 ef be 83 8e 3c bd
       -0.4638507 0.07057251 -0.46719444 -0.046034347
0001b0 b0 20 fe 3e c9 85 d9 be 54 44 9c be 29 02 fe 3e
       0.49634314 -0.42484882 -0.3052088 0.49611023
0001c0 41 64 1e bd a4 fd f5 3c dc b2 37 3e 3f 7d af 3d
       -0.03866983 0.030028172 0.17939323 0.08568811
0001d0 25 48 0b be d4 49 c4 3e 98 17 81 3e 39 7a e6 3e
       -0.1360174 0.38337576 0.25213313 0.45015123
0001e0 10 5e 4a 3e 70 0a 23 be c9 8f a5 be 89 f8 84 be
       0.19762444 -0.1592195 -0.32336262 -0.25970867
0001f0 7b 4b d1 be dd 8e c5 be 55 2c b5 be 16 17 f6 be
       -0.408779 -0.3858556 -0.35385385 -0.48064488

bias f4 [128]
000000 c4 7f c0 3c d0 3f 1a 3c 11 60 70 3c 3d 71 10 3d
       0.023498423 0.009414628 0.0146713415 0.035264242
000010 22 9e 5b 3d 01 52 20 bd 76 46 c3 3c 5c 4d 4e 3d
       0.053617604 -0.039140705 0.02383731 0.050366744
000020 95 9f 01 bb cd 6e 96 bc 80 2e 21 bd 91 e4 23 3c
       -0.0019778956 -0.01836338 -0.039350986 0.010003225
000030 06 4d 52 ba c1 75 3a 3c 81 b8 5c 3b 3a 3c f2 bc
       -0.00080223416 0.011380614 0.0033679309 -0.029569734
000040 48 4c a1 bc bb c7 d3 ba bf 2c e5 3c 08 50 73 3c
       -0.019689694 -0.0016157547 0.027975438 0.014850624
000050 7e 9f 93 ba 17 db 89 bb f2 39 b8 bb df ce 40 bd
       -0.0011262742 -0.0042070257 -0.005622142 -0.047072288
000060 d3 ee 98 bb c4 f1 04 bd 6f a2 84 bc f8 da b3 3c
       -0.004667142 -0.03245713 -0.016190736 0.021954998
000070 9b b9 2a 3d 2c a3 28 3d 67 7c f7 3c 3e 7a e1 3c
       0.041680913 0.041171238 0.030210687 0.02752411
000080 25 62 91 bb e9 8c 30 3d 68 ea 8c 3b be fa 0e bc
       -0.0044367486 0.043103132 0.0043004043 -0.008726774
000090 13 ff 0f 3d 39 a2 8f bc 79 6f fe 3c dd 08 00 3d
       0.035155367 -0.017533408 0.031059014 0.031258453
0000a0 66 0b 9a 3c 3c af 6b bc bc 89 b2 ba 5f 01 f7 bc
       0.018804263 -0.014385041 -0.001362137 -0.030152021
0000b0 78 c1 c6 3b bd c7 77 3c 93 79 bb 3b 9d cf 40 3d
       0.0060655437 0.015123305 0.00572128 0.047072995
0000c0 f6 15 d3 3c 68 3e e1 3c ea 10 e6 3c c0 7a 38 bb
       0.025767308 0.027495578 0.028084237 -0.0028149337
0000d0 41 89 de bb e6 f7 01 bc cc 2e b1 bc 86 cd 16 bd
       -0.0067912643 -0.007932639 -0.02162876 -0.036817096
0000e0 f5 59 1c 3d 4a 6c da bc 90 d4 d8 3c 25 f0 35 3c
       0.038171727 -0.026662964 0.026468545 0.011104618
0000f0 fe 7e 7a 3c 38 44 2e 3c 9a 5f e9 bc 24 11 90 3b
       0.015289066 0.010636382 -0.02848797 0.0043965746
000100 a2 56 64 3c e8 78 e8 3b ba 59 26 3d cd 60 32 3d
       0.0139366705 0.0070944913 0.040612914 0.043549348
000110 78 85 c6 3c 56 69 f5 3c da 82 62 3d 3e 69 22 3c
       0.024233565 0.029957455 0.05530057 0.009912787
000120 f2 1b 3b 3d cc ea 15 3d 9c de ee 3b d4 fa 26 3d
       0.045680948 0.036600873 0.0072897207 0.040766552
000130 97 0a 26 bc cc 80 2c bd 40 04 48 3c 61 4d 6e 3d
       -0.010134361 -0.042115018 0.0122080445 0.058179263
000140 52 80 05 3d b8 07 11 bd 1f f6 96 3c b2 43 d8 bc
       0.03259308 -0.03540775 0.018427907 -0.026399467
000150 40 a8 2c 3c c2 28 ac bc 8d 78 34 bc a6 af 78 3c
       0.010538161 -0.021015529 -0.01101507 0.015178597
000160 80 6c 2a 3b ca d5 26 bc 27 fc a7 39 8a b2 c1 bb
       0.0026004612 -0.010182807 0.0003204059 -0.005911176
000170 f5 46 b1 bc 20 c7 a7 3c 39 74 67 3b 2b 1b 90 3b
       -0.02164028 0.020480692 0.0035317077 0.00439777
000180 e4 77 cb 3c f3 20 9a bc 70 7a a9 3a cf 86 02 bc
       0.024837442 -0.01881454 0.0012930166 -0.007966711
000190 ce 9c d0 bc e4 1a fc 3c 93 bd 44 3d dd 59 7f bb
       -0.025465395 0.030774541 0.048032355 -0.0038963475
0001a0 04 d8 a5 bc 2a d5 1f 3d 66 c5 07 3d 9a 25 b5 3b
       -0.020244606 0.03902165 0.03314724 0.005528164
0001b0 50 93 59 3c fd 77 7e bc 83 19 72 3c b6 a3 34 bc
       0.013279751 -0.015531537 0.01477659 -0.01102536
0001c0 ed d1 f2 3c a5 fa d3 bc f0 7d ce 3c 70 04 4b 3c
       0.029641116 -0.025876353 0.025206536 0.012391195
0001d0 24 67 4f 3c 0a ea 75 bc fa fa ab 3c 64 0c 55 bd
       0.012658868 -0.015009413 0.020993698 -0.05201377
0001e0 4a 5d 85 3c 67 3a 99 3c 2d c0 0a 3d b3 bc b6 bc
       0.016279835 0.018704606 0.03387468 -0.022306776
0001f0 5d 54 be 3c 6c b7 da 3a 59 3c 87 bc 33 4e 6d bc
       0.023233587 0.0016686744 -0.016508268 -0.014483976

weight f4 [128, 31]
000000 d6 57 a9 bd b1 8d 64 bd 40 95 06 bd 5b 9c c0 bd
       -0.082687065 -0.05579919 -0.03285718 -0.094048224
000010 01 db b0 3d f0 3e ce 3d 6a 12 ad bc 05 54 12 be
       0.08635522 0.10070598 -0.021126945 -0.14289863
000020 82 e7 e8 3c 69 69 04 bf f6 6a ef bc 00 b1 1e bc
       0.028430704 -0.51723343 -0.029225808 -0.009685755
000030 cb ad 35 bd 25 90 5f bd 4d 19 3a be b6 fe 1e 3d
       -0.044355195 -0.054580826 -0.18173714 0.03881713
000040 91 24 fa bc a5 3c 41 3e 2d c6 58 bd 1d 2e c6 3d
       -0.030535014 0.1887079 -0.05292337 0.09676764
000050 fc 8e cd bd a9 15 d8 bd ca e2 94 bd c7 56 72 bd
       -0.10037038 -0.10551006 -0.07269819 -0.05916479
000060 4e 11 80 3d 92 c4 ed bd 16 ec 17 3e 0e 10 8a bd
       0.062533006 -0.116097584 0.14836153 -0.067413434
000070 89 c4 22 be 71 66 be 3d 38 ff a2 bd 3d 03 0b be
       -0.15895285 0.09296883 -0.07958835 -0.13575454
000080 a4 47 87 bc 43 05 03 3e 0a 02 c9 3d 6a c6 dc 3d
       -0.016513653 0.12794976 0.09814842 0.10780032
000090 07 d6 21 3e 8e e4 e8 3d 92 e8 cb bd 4f ed 01 b9
       0.15804301 0.11371718 -0.09956469 -0.00012390803
0000a0 f6 52 db bd 0b 79 32 3e 42 53 46 3d 0b 11 09 3e
       -0.10709183 0.17428987 0.048419245 0.13385408
0000b0 ab 96 29 3d 62 15 c3 3d be f5 01 be 91 72 f3 bd
       0.041403454 0.09525563 -0.126914 -0.11887086
0000c0 08 4b 21 3d 80 22 30 be 2d 45 bb bd 53 82 57 3d
       0.039378196 -0.1720066 -0.091440536 0.05261452
0000d0 51 24 08 bc a6 b8 03 3e 30 c1 97 3c 7a e5 a7 bd
       -0.00830944 0.12863407 0.018524736 -0.08198066
0000e0 e2 5a 2b be 13 58 dc bd 7f a1 b3 bc f7 12 14 bb
       -0.16733888 -0.10758986 -0.021927593 -0.0022594312
0000f0 b5 c3 9b bd 77 6d c0 3c 49 55 8b 3d 48 0d 65 bd
       -0.076056875 0.023489697 0.06803376 -0.05592087
000100 ff e8 1c bd 46 a8 93 3d e3 45 d5 bd cd 2e d1 bc
       -0.03830814 0.0720983 -0.104137205 -0.025535012
000110 ed a5 ad 3d a5 8b 3d be ad 5b 12 3e 67 b0 c7 bc
       0.084789135 -0.18510301 0.14292784 -0.024376107
000120 49 3a a6 3d ba 3c 92 bb 6c 40 c9 bd 83 61 15 be
       0.08116586 -0.0044628056 -0.098267406 -0.14587979
000130 3c c6 b5 3d fc fb dc 3d 76 94 6b 3d 5e 60 01 3e
       0.08875701 0.1079025 0.05751463 0.12634417
000140 cc dd 5b bd f8 c7 38 be 23 e9 8d 3d 21 73 27 3e
       -0.05367832 -0.18045032 0.06929233 0.16352512
000150 a6 c7 e4 bd 80 23 39 3d 19 10 33 be c0 e4 c0 3c
       -0.111708924 0.04519987 -0.1748661 0.023546576
000160 67 4a a1 3c 38 40 06 be 8c 1c 3d 3d 65 5d 8f bd
       0.019688798 -0.13110435 0.046169803 -0.070002355
000170 61 59 b0 bd 8e 3b 09 3e 35 11 bd bd 3f 6a d9 bd
       -0.08610798 0.13401625 -0.092317976 -0.10615968
000180 3d 3a c6 3d 86 3c 4d 3c 2c a8 7c 3d d3 9f c5 bc
       0.09679077 0.012526637 0.06168382 -0.024124062
000190 b6 61 34 bd 20 02 cf bc 7b df 0e bd ed 2c 1a 3e
       -0.044038497 -0.025269568 -0.034881096 0.150562
0001a0 27 f5 31 be ed e5 8f bd 98 14 34 be 55 4c 1d 3c
       -0.17378674 -0.07026277 -0.17585981 0.0096007185
0001b0 9a 79 fe 3d 2c 9d 83 3c 9b f5 d2 bd 2c d4 e9 bc
       0.124255374 0.016066156 -0.10300752 -0.028543554
0001c0 f1 6f 05 3e 86 42 f6 bd 1b ba 27 be ef ae 27 be
       0.13030984 -0.12024407 -0.16379587 -0.16375326
0001d0 00 e4 9f bd fb a8 43 3e e2 38 c1 3d db c7 db 3d
       -0.078071594 0.1910743 0.09434678 0.10731479
0001e0 a9 fa 38 be 8a fd 42 be e5 3b bf 3d ec c3 09 bd
       -0.1806437 -0.1904203 0.09337596 -0.03363411
0001f0 3f d6 03 bd 73 3c 13 be c6 f9 13 bd 34 36 48 bc
       -0.032186743 -0.14378528 -0.036126874 -0.012219954
000200 38 f9 2b 3e c9 e7 0e be ad ca 31 be 74 9d 78 3d
       0.16794288 -0.13955607 -0.17362471 0.060697034
000210 01 f4 f3 bc 67 21 87 bd 3a 13 f1 3d 84 b3 29 be
       -0.029779436 -0.06598168 0.11771245 -0.16572386
000220 0d c4 56 3d 33 57 42 bd a8 5c d1 bd 9a 55 80 bd
       0.052433062 -0.04744644 -0.10222751 -0.06266327
000230 2f 76 9f bd 37 d7 97 3d 52 30 17 3e 0f 07 ce bd
       -0.077862136 0.07414096 0.14764526 -0.1005994
000240 30 94 36 bd 6d 12 6e bd 1b 3f 5e bc 2e e5 a5 ba
       -0.044574916 -0.05812304 -0.01356485 -0.0012656802
000250 d6 4c fc 3d 5f 57 15 be 4e 85 2f be 24 b1 a2 bd
       0.12319343 -0.1458411 -0.17140695 -0.07943943
000260 51 72 dc bd 2c a8 be bd 50 c5 75 bd 6d 26 48 3e
       -0.107639916 -0.0930942 -0.060002625 0.19545908
000270 1f 15 3c 3d 9b 75 2c b9 b0 71 e7 3c f0 24 ee 3d
       0.04591858 -0.0001644701 0.028252453 0.11628139
000280 9e ca ce 3c 04 40 ee bd 88 17 21 bd 60 44 40 3d
       0.0252431 -0.11633304 -0.03932908 0.046940207
000290 cb da 76 bd ae 2c 98 3c d4 ae 71 3c 57 a6 d4 3d
       -0.06026725 0.018575992 0.014751155 0.10383289
0002a0 a2 bc c7 bd 82 74 90 3c 0d c6 7d bd 26 a6 b9 bd
       -0.09752776 0.01763368 -0.061956454 -0.090648934
0002b0 a5 e9 bf bc 0d 0f c1 bd 82 56 eb bd 20 ef 18 3e
       -0.02342684 -0.09426699 -0.114911094 0.14934969
0002c0 44 d3 3e be d5 11 28 3e 89 cb c5 bd dd 2c c4 bb
       -0.18635279 0.16413052 -0.09657962 -0.0059867934
0002d0 ce 4b 4d 3b d0 b8 ec bd 36 1d ff bd 06 da 2b bd
       0.00313257 -0.11558688 -0.124567434 -0.04195597
0002e0 70 3f 03 3c cf f7 b5 3d 14 10 7f bd 62 06 82 bd
       0.00801073 0.08885156 -0.062271193 -0.06348874
0002f0 16 2e 0b be e2 ee 65 bd 32 40 b6 3c e9 67 12 be
       -0.13591799 -0.05613602 0.022247408 -0.14297451
000300 28 2e 1d be b0 65 b2 3d 4f f4 48 3d af ca a6 bd
       -0.15349638 0.087108016 0.049061116 -0.081441276
000310 db 5c 08 be d3 9b 84 bd e2 4d 0a 3e 7b b3 e3 bd
       -0.13316672 -0.064750336 0.13506272 -0.111182176
000320 86 29 0e be 2e 1e 44 3d c0 cc 41 bd 0b 5c 31 bc
       -0.13883027 0.047880344 -0.047314405 -0.010825167
000330 43 97 30 be 77 cb 94 3d f9 4a 12 be 0b 1f 39 be
       -0.17245202 0.0726537 -0.14286412 -0.18078248
000340 a8 69 b5 3d 9a 72 05 3e e4 96 ac 3a 05 6b 1e be
       0.08858043 0.13031998 0.0013167528 -0.15470512
000350 f1 f7 6e 3d c2 03 94 bd 0c 41 ca 3d ae 7b 03 be
       0.058341924 -0.07227279 0.09875688 -0.12840149
000360 fe 19 32 3e 3a 9d 28 be 71 7c 0f be 10 66 af bd
       0.17392728 -0.16466227 -0.14012314 -0.08564389
000370 68 16 40 bd dc 63 d0 3d f8 ba 27 3e 39 06 03 be
       -0.04689637 0.10175297 0.16379917 -0.12795343
000380 9e 89 e2 3c b3 11 3c be 68 03 43 3e 66 7c b1 3d
       0.027653512 -0.18366127 0.19044268 0.08666305
000390 02 31 37 be 15 ed 9a bd 66 76 0e 3e 6f 7a c6 bd
       -0.17889789 -0.07564751 0.13912353 -0.09691321
0003a0 9d a6 9f bd 28 39 15 3d c6 a9 bf 3d dd d1 c4 3d
       -0.07795451 0.03643146 0.093585536 0.09610341
0003b0 ef a0 a2 bd 29 3d cd bd 88 39 28 be 40 78 1a be
       -0.07940852 -0.10021431 -0.16428196 -0.15084934
0003c0 ae ad 8d 3d d2 5d 93 3d 3b 3e 2d 3e 9f 1d 36 be
       0.069178924 0.07195629 0.1691827 -0.17784737
0003d0 b2 24 c5 3d a3 16 a9 3c 64 b8 51 bc 91 3f 3c 3e
       0.0962614 0.020640677 -0.01280031 0.18383624
0003e0 a9 38 15 3e 9c 90 28 be ee 01 5a bd f9 43 9f bd
       0.14572395 -0.16461414 -0.053224497 -0.07776637
0003f0 4e 2c 31 3e 72 4e fc 3d a0 3a 91 bd 63 79 32 bd
       0.17302057 0.1231965 -0.0709126 -0.043572795

att_src f4 [1, 1, 4]
000000 67 ed 37 c0 a0 2f bb 3f 48 6e 27 40 8a af f0 bf
       -2.873865 1.4623909 2.616106 -1.880357

att_dst f4 [1, 1, 4]
000000 2f 7b f9 3e 64 07 d3 be 63 79 33 3f 9e b9 45 3f
       0.48726794 -0.41216576 0.70107096 0.77236354

bias f4 [4]
000000 b4 5f 90 bb 96 c1 57 3c e0 8e b1 3e 42 94 85 3f
       -0.00440594 0.013168713 0.34679317 1.043587

weight f4 [4, 128]
000000 0b bb 10 be 71 0d 98 bd 0a 5e dd bc ee a8 0e be
       -0.14133851 -0.07424439 -0.02702238 -0.13931629
000010 72 e0 3b 3e 2e cb 2e 3e 54 3f 13 3e f6 83 3f 3e
       0.18347338 0.17069694 0.14379627 0.18702683
000020 31 35 0c 3c 8f 27 38 3e 36 04 47 3e 57 fd 34 be
       0.008557604 0.1798384 0.194352 -0.17674766
000030 6a 23 e7 bd ee 84 3a 3c 49 61 0f bd 74 99 4b be
       -0.112860516 0.011384232 -0.035004888 -0.19882756
000040 e3 ad a6 bd bf 8e 43 be 93 68 7a bc 09 dc a3 bd
       -0.08138635 -0.19097422 -0.0152837215 -0.08000953
000050 ac a8 08 3d f5 10 e7 3d f5 35 9c bd 83 75 3a bd
       0.033363983 0.11282531 -0.07627479 -0.045522224
000060 0c 1a cd 3c eb 4a b9 bd 8e c8 9d bc b9 ce c2 3d
       0.025036834 -0.090474926 -0.019260671 0.095120855
000070 c7 86 41 be 8c 3d 1e be 22 d2 3a 3e f9 31 17 be
       -0.1889907 -0.15453166 0.18244222 -0.14765157
000080 7c 52 e1 bd 50 63 27 3e f1 d9 f4 3d a0 8f a0 be
       -0.11002061 0.16346478 0.119556315 -0.31359577
000090 64 32 f3 bd d8 83 b3 be 7e 15 1d 3e 28 15 92 3d
       -0.118748456 -0.35061526 0.1534023 0.071329415
0000a0 7d 46 2b 3e d8 f1 4d be 5e fc ee bd 6b c6 ab bd
       0.16726108 -0.20111787 -0.11669229 -0.083874546
0000b0 45 cb 37 bd a9 e1 08 3e e3 99 03 3e 7e e7 c8 3d
       -0.044871587 0.13367333 0.12851672 0.09809779
0000c0 8f 52 26 bc 42 07 07 bd dc 53 1a be ec 7d 30 3e
       -0.010151519 -0.032965906 -0.15071052 0.17235535
0000d0 d2 c7 03 be 2b 6f d2 3c d1 fe ab 3d bf a7 49 3d
       -0.12869194 0.025687775 0.08398212 0.04923224
0000e0 0b 3e 26 3e ec f0 ac 3d 20 3f 02 be 82 1b b6 3d
       0.16234605 0.0844439 -0.12719393 0.088919654
0000f0 a2 4c dc 3d dc 66 2c bc eb e1 3a 3e 2a f1 cf 3c
       0.10756804 -0.01052257 0.18250243 0.02538355
000100 55 7f f2 3e 95 40 3e 3e 17 64 ee 3d 60 83 f6 3d
       0.47362772 0.18579324 0.116401844 0.120367765
000110 56 4f 13 3e 36 61 0b 3e fb 6f e1 3c 3c de 48 3e
       0.14385733 0.13611302 0.027519217 0.19616026
000120 48 f4 81 3e e1 98 0f 3d 36 ae cb 3e 69 7a 58 be
       0.25381684 0.035057906 0.3978135 -0.21140446
000130 aa aa b4 bd d3 c5 3f bd 32 77 f8 bd 82 43 47 be
       -0.08821614 -0.04681952 -0.1213211 -0.19459346
000140 81 3b 29 3e d6 4a a3 bd b1 af d2 3b 29 1f f2 3d
       0.16526605 -0.07973258 0.0064296355 0.118223496
000150 14 8f f9 bd 0a 33 45 be c0 e3 cd 3d 5b 43 5b be
       -0.12185493 -0.19257751 0.100532055 -0.21412413
000160 a1 4e 4b bd a6 ba 14 be 40 52 02 bd 79 ad 30 be
       -0.049635533 -0.14524326 -0.03181672 -0.17253675
000170 5b 8e 7c 3d ad 0d 15 be 0f 4e 9c be 3e 2f 46 be
       0.0616592 -0.14555998 -0.30528304 -0.19353959
000180 cb 76 9a be 65 5e e7 bd a4 3f 81 3d 74 2a 97 3d
       -0.30168757 -0.11297301 0.063109666 0.07381144
000190 52 86 3e be 3f 74 0a bd 6b 4f e1 bd 48 dd d5 be
       -0.18605927 -0.033802267 -0.11001476 -0.41770387
0001a0 7f cb e7 bd 1c cb 01 be 9d 30 ac 3c 5d 5c d8 be
       -0.11318111 -0.12675136 0.021019274 -0.42257968
0001b0 3a da 81 be 6d 8c 0d be 22 6b 9b 3c 5e ee 0b 3e
       -0.25361806 -0.138231 0.018971983 0.13665149
0001c0 be 04 c3 3d 91 89 ac 3d e1 ef 20 3e f3 f3 f2 3a
       0.09522389 0.08424676 0.15716507 0.0018535837
0001d0 86 79 a7 bd 1d 77 8a 3d 99 86 31 3c 9c 09 bb bd
       -0.08177476 0.06761 0.010835313 -0.09132692
0001e0 4a ae 1d bd 88 2a cd 3d 1a 39 6e bd f4 5b 66 3d
       -0.038496293 0.10017878 -0.058159925 0.056240037
0001f0 92 98 bd bd a7 c9 bb bd 91 ed e9 bd 46 dc 79 bd
       -0.09257616 -0.091693215 -0.11422265 -0.061001085
000200 85 3c c0 3f 87 3e 28 3e ac 0d 35 be 75 b2 a0 bd
       1.5018469 0.16430102 -0.17680997 -0.07846538
000210 1a 9b 4a be 8d bc a8 bd 4f d0 40 3e 38 7b 17 bb
       -0.19785729 -0.08239088 0.18829463 -0.0023114216
000220 b0 1c 7e bd a0 97 37 3e 6f 83 fe bd 6b 62 33 be
       -0.062039077 0.17928934 -0.12427413 -0.17518012
000230 a8 05 87 3e cd 4a 25 3e d4 f9 47 3f f9 86 a4 3f
       0.26371503 0.16141815 0.7811558 1.285369
000240 6a 91 9b 3d 97 8a 53 3d 98 84 75 be 98 5f 40 bd
       0.07596095 0.05164584 -0.23976362 -0.046966165
000250 9d aa d2 3c f8 2d e7 bd 2a 5c 1e 3e 0e fe 12 bc
       0.02571612 -0.11288065 0.15464845 -0.008971704
000260 75 69 95 3d ae 64 27 be 86 82 0a 3e 7d 3f 17 be
       0.07295505 -0.16347 0.13526353 -0.14770313
000270 8f c9 19 be 90 00 f4 3d 22 38 24 3c 7a fd 5b 3d
       -0.15018295 0.1191417 0.010023149 0.05370853
000280 8c 49 93 bd 23 cf b7 bd 09 de 08 b9 e0 26 db 3f
       -0.07191762 -0.08975055 -0.00013052685 1.7121239
000290 d3 95 23 be 78 a4 b4 3f 43 64 cb bc 7b b3 eb 3d
       -0.15975122 1.4112692 -0.024828082 0.115088426
0002a0 f1 8d e8 3d e5 c6 2b 3e 13 7c 0f be c8 6e 07 be
       0.11355198 0.16775091 -0.14012174 -0.13225853
0002b0 0e 54 29 be 66 ea 07 be c0 3f 40 be f9 78 0b 3d
       -0.1653597 -0.1327301 -0.18774319 0.034050915
0002c0 61 64 a3 bd 13 c3 3e 3d d3 6d 60 3b 0a 70 73 3d
       -0.0797813 0.046572756 0.0034245148 0.05943302
0002d0 b7 f7 be bc d4 30 22 3e 41 aa 58 bc 5e b5 ee 3d
       -0.023311479 0.15838939 -0.013224185 0.11655687
0002e0 0e a7 53 bd 88 64 52 bd 12 8b 03 3e 03 ec 59 be
       -0.051672988 -0.051365405 0.1284602 -0.21281438
0002f0 2d 40 9a 3c 33 b0 bb 3d 5c 95 b4 bc 2b 0a 73 bd
       0.01882943 0.09164467 -0.022043876 -0.05933587
000300 ee 75 e3 bf 15 cf 6d be af 5f b3 3d f6 bf 50 3d
       -1.7770364 -0.23223527 0.087584846 0.05096432
000310 aa 60 d4 bd cf e7 96 3d bc 11 fb bd c9 96 e6 bd
       -0.1037 0.07368433 -0.12259242 -0.11259229
000320 85 21 10 c0 ce 4a 35 be 50 ce da bf 6a a5 1f 3e
       -2.2520459 -0.17704317 -1.7094212 0.15590444
000330 0c 58 b8 bd 8f d8 cc 3d e2 33 71 bc f9 3c 50 3b
       -0.090011686 0.10002243 -0.0147218425 0.0031774624
000340 27 98 00 bd 61 62 8a 3e e2 2f 85 3e 86 db 92 3c
       -0.031395104 0.27028182 0.26013094 0.017926943
000350 71 18 87 be 4c fc 11 3e 9c 74 48 be 8b 99 77 3f
       -0.26385835 0.142564 -0.19575733 0.9671866
000360 63 04 98 bd 8f be 30 3f 47 07 26 be 1c 06 3f bd
       -0.07422712 0.6904077 -0.16213714 -0.046636686
000370 7a 1f 27 be 24 3a 88 3c 56 9a d2 3f 30 29 b2 bd
       -0.16320601 0.016629286 1.645335 -0.08699262
000380 99 c0 aa 3f a1 2f 74 3d 61 6e 56 be 36 0e 10 3d
       1.3340026 0.059615735 -0.20940544 0.035169803
000390 e2 33 52 be 84 7d 0c be 1f 66 cc 3d be a3 f1 3f
       -0.20527604 -0.13719755 0.099804156 1.8878095
0003a0 3d d5 cb bc 40 f2 18 3f 37 f1 18 be 91 9c d9 3f
       -0.024881953 0.59744644 -0.14935766 1.7000905
0003b0 f2 fd ea 3f 46 63 4b be 22 bd 12 be 20 f2 5d bd
       1.8358748 -0.19862089 -0.14329961 -0.054185987
0003c0 a3 c3 f7 3e 93 a2 0e 3e 8b c6 3c 3e 19 a4 f0 bd
       0.48391446 0.13929205 0.18435113 -0.11750049
0003d0 50 2b a0 3d 4d de 37 be 45 79 c0 3d 98 06 37 3e
       0.07820761 -0.17955895 0.0939813 0.17873609
0003e0 6f 2c bc 3d e8 b2 47 3d 5a 6e f2 bc 40 b7 fc 3d
       0.091881625 0.048754603 -0.029593635 0.1233964
0003f0 ff f5 4f 3e a9 d8 49 3d 34 ba e8 bd 10 88 4f 3c
       0.20308684 0.04927889 -0.113636404 0.012666717

weight f4 [1, 4]
000000 bf c8 3b bb d3 94 f8 be b2 cf a5 be f7 99 8d bf
       -0.002865359 -0.48551044 -0.3238502 -1.1062611
